app/src/main/assets/pushup-model.tflite (tflite, 64892 bytes, 6 tensors)

dense_29/bias f4 [3]
0	0xbf09f67e	-0.5389174
1	0x3e897a79	0.26851252
2	0x3e7f0255	0.24903233

dense_28/bias f4 [64]
0	0x3ddcd55e	0.10782884
1	0x3e0886b7	0.1333264
2	0x3e0ccc37	0.13749777
3	0xbc478ae2	-0.012179108
4	0x3e16571a	0.14681664
5	0x3d6fbb45	0.058528204
6	0x3dfef24a	0.12448557
7	0x3ce2e0e9	0.027695136
8	0x3e011a45	0.12607677
9	0x3d8b44c6	0.06800227
10	0x3e0f7ea0	0.14013147
11	0x3e2fc10a	0.17163482
12	0x3d51da9e	0.05123388
13	0x3e31654b	0.17323796
14	0x3d494cc2	0.049145468
15	0x3bbc54bc	0.005747406
16	0x3d26d0bb	0.040726405
17	0x3da6d836	0.08146708
18	0x3dddfd39	0.10839314
19	0x3e1bc67e	0.15212438
20	0xbbd6d735	-0.0065564164
21	0x3debf2bb	0.115209065
22	0x3e1c2590	0.15248704
23	0xbcaf1106	-0.021370422
24	0x3e3a7075	0.18206961
25	0x3e0c1f3b	0.13683788
26	0x3d32c220	0.043642163
27	0x3d60528f	0.054766234
28	0x3e2a6388	0.1663953
29	0x3d562a2a	0.052286305
30	0x3e0bf6cf	0.13668369
31	0xbd4149ef	-0.04718965
32	0x3e028353	0.12745409
33	0x3d2ac47f	0.0416913
34	0x3e080ed0	0.132869
35	0x3dea22cb	0.114324175
36	0x3d42b9fa	0.047540642
37	0x3e01b2b4	0.12665826
38	0x3d9aee45	0.075649776
39	0x3de6c438	0.112678945
40	0x3e1b64a3	0.15175109
41	0x3e224877	0.15847956
42	0x3d730d7b	0.059339028
43	0x3d300f47	0.04298332
44	0xbd0a158c	-0.033711955
45	0x3da9ae4d	0.08285198
46	0x3d0605b4	0.032720283
47	0x3d5c088d	0.053719092
48	0xbc63f99a	-0.01391449
49	0x3db60265	0.088871755
50	0x3db1724a	0.08664377
51	0x3afc869c	0.0019266191
52	0xbb510c34	-0.0031898143
53	0x3cb90ce1	0.022589149
54	0xbb0eac90	-0.0021770336
55	0x3e1b3b57	0.15159355
56	0x3e08b6dd	0.13351007
57	0x3d379b8e	0.044826083
58	0x3da425b7	0.08015006
59	0x3de2b1e0	0.11069083
60	0xba646b1a	-0.0008713469
61	0xbb9926ad	-0.0046738
62	0x3d3e4d22	0.04646028
63	0x3e050913	0.12991743

dense_27/bias f4 [128]
0	0xbd1c026e	-0.038088255
1	0xbce66282	-0.028123144
2	0xbd820205	-0.063480414
3	0x3cf29da5	0.029616186
4	0xbd22ece7	-0.03977671
5	0xbd4803e8	-0.04883185
6	0xbcac4bb7	-0.021032197
7	0xbd482b98	-0.0488697
8	0xbc693b48	-0.014235325
9	0xbcfad6c8	-0.030619994
10	0xbd8aa3e0	-0.06769538
11	0xbd8ced2e	-0.06881176
12	0xbd917a0e	-0.07103358
13	0xbd4ba394	-0.049716547
14	0xbd30e847	-0.043190267
15	0xbdb95a38	-0.09050411
16	0xbd557b3d	-0.052119482
17	0x3cad9431	0.021188827
18	0xbb467c6a	-0.003028656
19	0xbd873144	-0.066011935
20	0xbd1a5f6a	-0.03768865
21	0xbd9c4143	-0.07629635
22	0xbdaee555	-0.08539835
23	0xbd047aba	-0.032343604
24	0xbcbb4db2	-0.022864196
25	0xbd72d722	-0.059287198
26	0xbdab8377	-0.08374684
27	0x3c2dcb47	0.010607547
28	0x3c9666ea	0.01835962
29	0xbd851da0	-0.06499791
30	0xbd09fe9f	-0.03369009
31	0x3c2b1ea1	0.010444314
32	0xbd54a956	-0.051919304
33	0xbcba63c8	-0.022752658
34	0xbd12f120	-0.035874486
35	0xbd0c00a7	-0.03418031
36	0xbd26ba0d	-0.040704776
37	0xbd421593	-0.047383856
38	0xbd98fcea	-0.074701145
39	0xbd4f761b	-0.050649744
40	0xbc74c8bb	-0.014940436
41	0xbcd78b35	-0.026311496
42	0xbccba858	-0.024860546
43	0xbd6fbe41	-0.05853105
44	0xbcd5c8f7	-0.026096804
45	0xbc6a6920	-0.01430729
46	0x3cd47886	0.025936376
47	0xbd1a1d3c	-0.037625536
48	0xbd4ad3d9	-0.04951844
49	0xbc7a4098	-0.015274189
50	0xbcde7081	-0.027153255
51	0xbdc0f982	-0.0942259
52	0xbd360bf0	-0.04444498
53	0xbced949b	-0.029001525
54	0xbbdb3eb1	-0.006690823
55	0xbd504a52	-0.050852127
56	0xbd5838e3	-0.052788626
57	0xbdbcb794	-0.09214702
58	0x3c6d5e14	0.014487762
59	0xbd1741e3	-0.03692807
60	0x3d31d83d	0.04341911
61	0x3cea37f9	0.028591143
62	0xbd72d241	-0.059282545
63	0xbdc3f784	-0.09568694
64	0xbcac64ec	-0.021044217
65	0xbd07232d	-0.03299253
66	0xbd6dce64	-0.058058158
67	0xbcde5dfc	-0.027144425
68	0xbd64cb4d	-0.055857945
69	0xbdc78f8a	-0.09744175
70	0x3cf080fd	0.029358381
71	0xbcb823f4	-0.022478081
72	0xbd9dabcd	-0.07698784
73	0xbdbb81f4	-0.09155646
74	0x3c734bdd	0.01484963
75	0xbdb842cc	-0.089971155
76	0xbcee31ef	-0.029076545
77	0xbd9c25c5	-0.076243915
78	0x3c316e27	0.010829485
79	0x3bf3d2d0	0.0074409023
80	0x3ca9e44f	0.020738749
81	0xbd0d8e25	-0.034559388
82	0xbd46e20b	-0.048555415
83	0xbd817f23	-0.063230775
84	0x3d1577d2	0.036491223
85	0xbc7ee9d3	-0.015558678
86	0xbcaa68db	-0.020801952
87	0xbc41a8c8	-0.011820026
88	0xbd856bff	-0.06514739
89	0x3d17c2a0	0.037050843
90	0xbd109c9e	-0.03530561
91	0xbcb9952b	-0.022654137
92	0xbce718c9	-0.02821006
93	0x3bf960f0	0.007610433
94	0xbd4c42bf	-0.04986834
95	0x3c8e41d5	0.017365376
96	0xbcba842d	-0.022768104
97	0xbc709202	-0.0146832485
98	0x3c276705	0.010217433
99	0xbd6b3a32	-0.057428546
100	0xbd88f061	-0.06686474
101	0x3d011bcb	0.031520646
102	0xbdb49b46	-0.088186786
103	0xbd124ce3	-0.035717856
104	0xbd5ebb97	-0.05437812
105	0xbdb07b95	-0.086173214
106	0xbcb7fa8a	-0.022458334
107	0xbe1d8430	-0.15382457
108	0xbda6eef2	-0.08151044
109	0xbd62b481	-0.055347923
110	0xbcc26081	-0.023727657
111	0xbcedec24	-0.029043265
112	0x3bc4db0b	0.0060075573
113	0xbd2223ae	-0.039584808
114	0xbd17bba1	-0.03704417
115	0xbcedc1ab	-0.029023012
116	0xbcd175ac	-0.025568806
117	0xbd2fe26e	-0.04294055
118	0xbd46f575	-0.04857393
119	0xbcaf87e4	-0.021427102
120	0xbde248f6	-0.110490724
121	0xbde4c941	-0.11171199
122	0xbdb7b6e1	-0.08970428
123	0xbdab6dca	-0.0837055
124	0xbd375865	-0.044762034
125	0xbd06b320	-0.03288567
126	0xbd79327b	-0.060839158
127	0xbdd7c90c	-0.105363935

pushupdetector/dense_27/MatMul f4 [128, 34]
0	0xbee2383c	-0.44183528
1	0xbe1d772e	-0.15377495
2	0xbcc2f336	-0.023797613
3	0x3c0826d4	0.008310039
4	0xbeb55fdb	-0.35424694
5	0x3e17e7a4	0.14834458
6	0x3b64fc29	0.0034940338
7	0xbe1f3a28	-0.15549529
8	0xbdf1d93d	-0.11809013
9	0xbdb29306	-0.08719449
10	0xbe3b6921	-0.18301822
11	0xbe4ca102	-0.19983295
12	0xbd872f3c	-0.06600806
13	0xbda9906e	-0.08279501
14	0x3fb3d0da	1.4048111
15	0xbb692021	-0.003557213
16	0x3ea1a86b	0.31573805
17	0x3e54b8b5	0.20773585
18	0x3f11d640	0.56967545
19	0x3e013e68	0.12621462
20	0x3e7129fe	0.23551175
21	0xbdd3edbd	-0.10348079
22	0xbec6c3dd	-0.38821307
23	0xbe411aed	-0.18857928
24	0x3f0275e2	0.50961125
25	0x3e312400	0.17298889
26	0xbcc61cda	-0.02418368
27	0xbd963d2a	-0.07335885
28	0x3ec2a929	0.38019684
29	0xbdbf08f4	-0.093278795
30	0x3d785bc9	0.06063441
31	0xbe306bc6	-0.17228612
32	0x3e388e42	0.18023017
33	0x3dd7a85a	0.105301574
34	0xbf6c931c	-0.9241197
35	0xbd341512	-0.043965407
36	0xbda2cb5b	-0.07948943
37	0xbe09adfd	-0.13445278
38	0xbee8b338	-0.45449233
39	0x3da5b44c	0.080910295
40	0xbe07b8b4	-0.13254052
41	0xba13bff6	-0.00056362094
42	0xbe85c457	-0.26126358
43	0x3d1adb80	0.037806988
44	0xbe86a4f1	-0.26297715
45	0xbe5c7e3c	-0.2153253
46	0xbe0bc312	-0.13648632
47	0x3cf0dff0	0.029403657
48	0x3f97634e	1.182718
49	0x3d1d298d	0.038369704
50	0x3f89789a	1.073993
51	0x3ed06d87	0.40708563
52	0xbe28303d	-0.16424651
53	0xbe18e8fa	-0.14932624
54	0x3e112f5c	0.14178222
55	0xbe009662	-0.12557366
56	0xbebbb386	-0.36660403
57	0x3e369b56	0.17832693
58	0x3f1c8dfe	0.6115416
59	0xbdab7742	-0.08372356
60	0x3dbac76a	0.091200665
61	0x3dccbdcc	0.099971384
62	0x3f03f1ed	0.51541024
63	0xbcbdafe8	-0.023155168
64	0x3e0023b7	0.12513624
65	0xbd118f7b	-0.035537224
66	0xbd3209ed	-0.043466497
67	0xbcc38c1e	-0.023870524
68	0xbe633d4b	-0.2219135
69	0xbe48ee16	-0.19622073
70	0xbe682877	-0.22671686
71	0x3dd95ff7	0.10614007
72	0xbd9dda79	-0.07707686
73	0xbe72ebf4	-0.23722821
74	0x3cca070b	0.024661561
75	0x3dae537c	0.08512017
76	0x3d9fdfba	0.07806344
77	0xbdb1af6d	-0.08676038
78	0xbd03b1fd	-0.032152165
79	0xbdf0afe3	-0.11752298
80	0x38b05e06	8.409847e-05
81	0x3da82c21	0.08211542
82	0xbdd37c51	-0.10326446
83	0xbeb4af03	-0.35289773
84	0x3e542529	0.207173
85	0xbcce42b3	-0.025178289
86	0x3e31d7b3	0.17367439
87	0xbd460a45	-0.048349638
88	0x3e1188d2	0.14212349
89	0xbbc95725	-0.0061444216
90	0xbe076043	-0.13220315
91	0x3f02cafe	0.5109099
92	0x3e9badc4	0.3040601
93	0xbeed1acd	-0.4630951
94	0x3f5505a6	0.83211744
95	0xbe897956	-0.26850384
96	0x3ee043a3	0.43801603
97	0xbf03f05e	-0.51538646
98	0x3e7d1142	0.24713615
99	0xbd8778a6	-0.06614809
100	0x3e88eba8	0.2674229
101	0xbe76a029	-0.24084534
102	0x3eaf2e4c	0.3421501
103	0xbdf46394	-0.119330555
104	0xbda69067	-0.08133011
105	0xbc44105d	-0.011966792
106	0x3eb7f82f	0.35931537
107	0x3e3040d3	0.17212228
108	0x3cc63a08	0.024197593
109	0xbe44eef7	-0.19231783
110	0x3e5d58fc	0.21615976
111	0xbe029535	-0.1275223
112	0x3d5a6210	0.053316176
113	0xbeb331a5	-0.34998813
114	0x3f063205	0.52420074
115	0x3e8ac11d	0.2710046
116	0xbf486177	-0.7827372
117	0xbeb24b00	-0.34822845
118	0xbe8b5a6a	-0.27217418
119	0x3eb829e9	0.35969475
120	0xba83e453	-0.0010062553
121	0xbd89bf5b	-0.06725951
122	0xbef41a3e	-0.4767627
123	0xbe1d239a	-0.15345612
124	0xbdf4d7e4	-0.1195524
125	0xbf2886ca	-0.6583067
126	0x3dba9707	0.091108374
127	0x3f261228	0.64871454
128	0x3ec0964a	0.3761466
129	0xbef8cf3e	-0.48595613
130	0x3f10d6c6	0.5657772
131	0x3dbf0441	0.09326983
132	0xbd20b7ad	-0.039237667
133	0xbe0096dc	-0.12557548
134	0xbe9554f0	-0.29166365
135	0xbe720075	-0.23632987
136	0x3ed52fa5	0.41637912
137	0x3d24d8ed	0.04024594
138	0xbca1b033	-0.019737339
139	0xbdeaf6fb	-0.11472889
140	0x3ea3fd4f	0.32029197
141	0xbda28611	-0.079357274
142	0x3d054381	0.03253508
143	0x3ba44916	0.0050135953
144	0xbe7726ac	-0.24135846
145	0xbe134da4	-0.14385086
146	0xbe841ed4	-0.2580477
147	0x3d733b31	0.05938262
148	0xbed1587c	-0.4088782
149	0xbeb5a24a	-0.3547538
150	0xbdc417a9	-0.09574825
151	0x3e958a72	0.29207188
152	0x3e5e420a	0.2170488
153	0xbd1399ac	-0.036035225
154	0x3df3a1c7	0.11896091
155	0x3e49a6dd	0.1969256
156	0xbde5fb68	-0.112295926
157	0xbdecb863	-0.115586065
158	0x3e91dc74	0.28488505
159	0x3efe95b9	0.49723604
160	0xbe1beb5f	-0.15226506
161	0xbea98545	-0.3310949
162	0xbd9e62a4	-0.07733658
163	0x3ef033ed	0.46914616
164	0x3e0a30a3	0.13495116
165	0x3f1c7745	0.6111949
166	0xbdd6879b	-0.104750834
167	0x3ea3f056	0.320193
168	0x3d6e9dda	0.058256008
169	0x3daafae0	0.08348632
170	0xbedd2f37	-0.43200085
171	0xbe604cdf	-0.21904324
172	0xbeb17263	-0.34657583
173	0x3dba45dc	0.09095356
174	0xbedc3ec4	-0.43016636
175	0xbe150123	-0.14551215
176	0xbd089de8	-0.033353716
177	0x3e4c43af	0.19947694
178	0x3ad3d082	0.0016160163
179	0xbc9ac313	-0.018891847
180	0xbd2e61f7	-0.042573895
181	0x3e92341f	0.2855539
182	0x3e22fd4f	0.15916942
183	0x3e826e89	0.25474957
184	0xbd156261	-0.036470775
185	0x3e53fb58	0.20701349
186	0x3ea95c81	0.33078387
187	0x3ee18e10	0.44053698
188	0xbebed3fc	-0.37271106
189	0x3e87f1fa	0.265518
190	0xbe9329f9	-0.2874296
191	0x3e537f9f	0.20654152
192	0xbea4eee8	-0.3221352
193	0xbe325635	-0.17415698
194	0x3ed1fe36	0.4101426
195	0xbddcac9a	-0.10775109
196	0xbe8c235a	-0.2737072
197	0x3e8d32ba	0.27577764
198	0xbda8982f	-0.08232152
199	0x3d88dc49	0.06682641
200	0xbe6cdc64	-0.23130947
201	0xbdb66aae	-0.08907066
202	0x3e0f4c24	0.13993889
203	0x3f09c239	0.53811985
204	0x3ebcab8a	0.36849624
205	0x3d14f8c4	0.036370054
206	0x3d1f7e5d	0.03893887
207	0x3d32d0c5	0.04365613
208	0x3ec8382a	0.3910535
209	0xbe8a5a9c	-0.27022254
210	0xbd992175	-0.074770845
211	0xbe302d7e	-0.17204854
212	0xbceebd02	-0.02914286
213	0xbdeb568f	-0.11491119
214	0xbb9941c8	-0.004677031
215	0x3e82551d	0.2545556
216	0xbe7c0105	-0.24609764
217	0xbe8e16b6	-0.27751702
218	0xbe30f405	-0.17280586
219	0x3ed0a8bc	0.40753734
220	0x3ee18e12	0.44053704
221	0xbd093ef7	-0.033507314
222	0xbd2800b8	-0.04101631
223	0x3eb9ced7	0.3629062
224	0x3e49c8cf	0.19705509
225	0xbe587427	-0.21138059
226	0x3df96919	0.12178249
227	0x3e7b0bb4	0.24516183
228	0xbe95a0b1	-0.2922416
229	0xbdb95736	-0.09049837
230	0xbe422b4f	-0.18961833
231	0x3d637b78	0.05553767
232	0xbe2b85f8	-0.16750324
233	0x3e9d58b3	0.30731735
234	0xbca24b33	-0.019811248
235	0x3e88aa06	0.26692218
236	0xbe837d07	-0.25681326
237	0x3e9e6be8	0.309417
238	0x3dba2130	0.09088361
239	0x3e64f628	0.22359526
240	0x3cc2362e	0.023707476
241	0x3dbe1f6d	0.09283338
242	0x3da62828	0.08113128
243	0x3e5f5b04	0.21812063
244	0xbd0f3652	-0.034963913
245	0x3e785356	0.2425054
246	0x3e7eac87	0.24870501
247	0x3e8a6a2a	0.27034122
248	0x3e747d74	0.23875982
249	0x3e172e6f	0.14763807
250	0x3e33c67e	0.17556188
251	0x3e88e7fd	0.26739493
252	0x3e87ea60	0.26546
253	0x3d358f45	0.044326086
254	0x3dc7ff1b	0.097654544
255	0x3ddd3d24	0.10802677

pushupdetector/dense_28/MatMul f4 [64, 128]
0	0x3c276c61	0.010218711
1	0xbcdd2ca0	-0.026998818
2	0xbed18d2c	-0.40928018
3	0xbdc81005	-0.097686805
4	0x3ee80c19	0.4532173
5	0xbebdfca5	-0.37106815
6	0x3e706edc	0.2347979
7	0xbeccc411	-0.39993337
8	0xbf0fdc52	-0.5619556
9	0x3e39e376	0.18153176
10	0x3dc86f30	0.09786832
11	0x3e027f2f	0.12743829
12	0xbea152b1	-0.315084
13	0xbd8962cc	-0.06708297
14	0xbdd8bd7b	-0.105830155
15	0xbcd7ac21	-0.026327195
16	0xbded29bb	-0.11580225
17	0x3d76464a	0.060125627
18	0x3da2e31c	0.07953474
19	0xbee50e66	-0.44737548
20	0xbe39fb31	-0.18162228
21	0x3d7c9983	0.061669838
22	0xbef00e60	-0.46885967
23	0x3eb05bf1	0.34445146
24	0xbe976f1d	-0.2957696
25	0xb8ebb0c1	-0.00011238596
26	0x3e31a331	0.17347409
27	0xbf3801f7	-0.71878
28	0xbf34ca2e	-0.70621
29	0x3de20c90	0.11037552
30	0xbe2fb3ca	-0.17158428
31	0xbf0704aa	-0.5274149
32	0xbe61789c	-0.22018665
33	0xbe97a9db	-0.29621777
34	0xbf135244	-0.575474
35	0x3ea67500	0.3251114
36	0xbf19824b	-0.59964436
37	0x3db28e77	0.08718579
38	0xbbde1fcc	-0.006778693
39	0xbf03373e	-0.5125617
40	0x3de372f2	0.111059085
41	0xbec46ad2	-0.38362747
42	0xbda2137e	-0.07913874
43	0x3d3325e5	0.04373731
44	0xbe0c44ba	-0.13698092
45	0xbf2ed5ae	-0.682948
46	0xbf04a130	-0.5180845
47	0xbe3b4154	-0.1828664
48	0xbe867237	-0.26259014
49	0xbd87abd9	-0.06624574
50	0xbf0a04b9	-0.53913456
51	0xbe9811eb	-0.2970117
52	0xbd756b39	-0.05991671
53	0x3e58ceea	0.21172681
54	0x3d777947	0.060418393
55	0x3e51d344	0.20490748
56	0x3d924090	0.071412206
57	0x3e4724d3	0.19447641
58	0xbec26050	-0.37964106
59	0xbe1737b6	-0.14767346
60	0xbf056816	-0.5211195
61	0xbde1ba96	-0.110219166
62	0xbefa8cf7	-0.48935673
63	0xbec32e8c	-0.3812145
64	0xbd6c5c9b	-0.057705503
65	0x3ee22d64	0.44175255
66	0x3e53d00a	0.2068483
67	0x3e786b5c	0.24259704
68	0x3e0b4e85	0.13604172
69	0xbd6bf660	-0.05760801
70	0xbf04a0dc	-0.5180795
71	0xbf191952	-0.5980426
72	0xbebb8591	-0.3662534
73	0xbe585c22	-0.21128896
74	0xbdedf1ec	-0.116184086
75	0x3e026894	0.12735206
76	0x3ee5cb08	0.44881463
77	0xbed60ae0	-0.41805172
78	0x3bb41f1b	0.005496872
79	0xbeabdbb5	-0.3356606
80	0xbe76dc30	-0.24107432
81	0xbee7a04b	-0.4523948
82	0x3dd76046	0.105164096
83	0x3e0979de	0.13425395
84	0xbca5313e	-0.020165082
85	0x3e82af3c	0.25524318
86	0x3d002ca2	0.031292565
87	0x3dda2cdf	0.1065309
88	0x3e24889c	0.16067737
89	0xbe846345	-0.25856987
90	0xbedd5bec	-0.43234193
91	0x3ee76d38	0.45200515
92	0xbd37f9ed	-0.044916082
93	0xbe31247c	-0.17299074
94	0xbda42d16	-0.08016412
95	0xbe18f5b2	-0.14937475
96	0xbda0e399	-0.07855911
97	0xbf06a24a	-0.52591383
98	0x3d2ada95	0.041712362
99	0x3d4e6e37	0.050398078
100	0xbe6a806d	-0.22900553
101	0xbecdda40	-0.40205574
102	0xbf056ea6	-0.5212196
103	0x3ea00b84	0.31258786
104	0x3e45fae1	0.19333984
105	0xbf58c14e	-0.8466996
106	0x3e9c5c49	0.30539158
107	0xbed4e8b7	-0.41583797
108	0xbf3caecf	-0.73704237
109	0xbead2862	-0.33819872
110	0xbecea66c	-0.40361345
111	0x3daff76e	0.08592115
112	0xbeac1bc1	-0.33614925
113	0xbe34cddc	-0.17656654
114	0x3eaca1ab	0.33717093
115	0xbebc7b84	-0.36812985
116	0xbf18a90a	-0.59632933
117	0x3d28bb2b	0.041194122
118	0xbeb6f05d	-0.35730258
119	0x3e9eb9ec	0.31001222
120	0x3d4cd9ff	0.050012585
121	0x3e9e4510	0.30912066
122	0x3e221e19	0.15831794
123	0x3db2a331	0.087225325
124	0xbf0d4769	-0.5518709
125	0x3d153595	0.036428053
126	0x3eddef56	0.4334666
127	0xbf1906b8	-0.59775877
128	0x3e9b1cf6	0.30295533
129	0x3f0119e7	0.5043015
130	0x3eb3c8d2	0.3511415
131	0xbdc97ddc	-0.09838459
132	0xbe42f504	-0.19038779
133	0x3f2beaf8	0.6715541
134	0xbe34ba7d	-0.17649265
135	0x3ec95bc2	0.39327818
136	0xbe4fe87b	-0.20303528
137	0x3ee1726b	0.44032606
138	0xbe0a352e	-0.13496849
139	0xbe9a3e01	-0.3012543
140	0x3f096af5	0.5367883
141	0xbe15925d	-0.14606614
142	0x3d9f264d	0.07770977
143	0x3ec8f570	0.39249754
144	0x3edfac9d	0.4368638
145	0xbddd7bd6	-0.108146355
146	0xbe86fd46	-0.26365107
147	0x3f2bf749	0.671742
148	0x3f1ad90a	0.60487425
149	0xbe626c21	-0.2211156
150	0x3dd115ce	0.10209237
151	0x3dd047cd	0.10169945
152	0x3f0419b4	0.5160172
153	0x3e186d5d	0.14885469
154	0xbe8aaec0	-0.2708645
155	0x3eac4b64	0.33651268
156	0x3eb2aec3	0.34898958
157	0xbe5cad9e	-0.21550605
158	0x3ed692de	0.41908926
159	0x3d9a62b2	0.07538356
160	0x3f057682	0.52133954
161	0x3ec0b3fd	0.3763732
162	0x3d908ff3	0.07058706
163	0x3d461e34	0.048368648
164	0x3f4efad4	0.80851483
165	0xbeb9f33f	-0.36318395
166	0xbd7b206e	-0.061310224
167	0xbbe66197	-0.0070306766
168	0x3dace741	0.08442546
169	0x3ed91d06	0.42404956
170	0x3e062d1c	0.13103145
171	0xbe452452	-0.19252136
172	0xbe09468e	-0.1340582
173	0x3f097319	0.5369125
174	0x3eb873b6	0.3602578
175	0x3f1e41d8	0.6181922
176	0x3f29edac	0.66378284
177	0x3ea2f495	0.31827226
178	0x3e4938fe	0.19650647
179	0xbccdf839	-0.025142776
180	0x3ea8e4d3	0.3298708
181	0xbe392c72	-0.18083361
182	0x3ec5d678	0.3864019
183	0xbd726b1a	-0.05918417
184	0xbe2c52d5	-0.16828473
185	0xbe341499	-0.17585982
186	0x3c817bf3	0.015806174
187	0xbe3786c3	-0.17922501
188	0x3e7db522	0.24776128
189	0x3dd2eaab	0.102986656
190	0x3ef86cd8	0.4852054
191	0x3e7f111d	0.24908872
192	0xbe6c8c62	-0.23100427
193	0x3cccb4b6	0.024988513
194	0xbd55e315	-0.052218515
195	0xbe752618	-0.23940313
196	0xbe241d05	-0.16026695
197	0x3e9eb08d	0.30994073
198	0x3a780dfa	0.0009462532
199	0x3ebc50bb	0.36780342
200	0x3e97a068	0.29614568
201	0x3e814cad	0.2525381
202	0x3d62ff23	0.0554191
203	0xbdf153b9	-0.11783547
204	0xbdf5dc1a	-0.12004872
205	0x3eba0ed7	0.36339447
206	0xbe3bc403	-0.18336491
207	0xbdd56331	-0.1041931
208	0xbe978ec5	-0.29601112
209	0x3f348718	0.70518637
210	0xbe2dfdfd	-0.1699142
211	0xbe81e116	-0.2536704
212	0xbe10f31e	-0.14155242
213	0xbe36f6af	-0.1786754
214	0xbebc19df	-0.36738488
215	0x3e1b9b26	0.15195903
216	0xbea4c99e	-0.32185072
217	0x3e9d728a	0.3075145
218	0x3eb86cfd	0.3602065
219	0x3d6eb194	0.05827482
220	0xbe1fc027	-0.15600644
221	0xbd22282f	-0.039589103
222	0x3ea328a7	0.31866953
223	0xbe657fd8	-0.2241205
224	0x3efa1534	0.48844302
225	0xbd94c2d3	-0.07263722
226	0x3af9cf8c	0.0019059046
227	0xbeb3b234	-0.35096896
228	0x3dc2198a	0.094775274
229	0xbd92642b	-0.07148012
230	0x3e28ead5	0.16495831
231	0xbd566b0b	-0.052348178
232	0xbd90593f	-0.07048272
233	0x3cd39d23	0.025831765
234	0xbd9afad9	-0.07567377
235	0xbcce9408	-0.025217071
236	0x3efc9ad0	0.49336863
237	0x3df20c99	0.11818809
238	0x3f3edaa1	0.7455235
239	0x3e8efdc3	0.2792798
240	0x3e929a6a	0.28633434
241	0x3e891426	0.26773185
242	0xbe366dda	-0.17815343
243	0x3eed2947	0.46320555
244	0x3f281761	0.65660673
245	0xbe5bdeb9	-0.2147168
246	0x3cebdbb3	0.028791284
247	0x3d799e43	0.060941946
248	0xbe26c62b	-0.16286533
249	0xbe64c247	-0.22339736
250	0xbdc45a50	-0.09587538
251	0xbdf13f25	-0.11779622
252	0x3efa0447	0.48831388
253	0x3f0932e2	0.53593266
254	0xbe3e36fb	-0.18575661
255	0x3f0ac747	0.54210323

pushupdetector/dense_29/MatMul f4 [3, 64]
0	0xbf9c1dc7	-1.2196587
1	0x3eada164	0.33912194
2	0xbf752261	-0.95755583
3	0x3f2a659b	0.6656129
4	0xbf8fd0b3	-1.1235565
5	0xbe948df2	-0.29014546
6	0xbfaf279c	-1.3683963
7	0x3f42c4ec	0.7608173
8	0xbf91995a	-1.1374924
9	0xbe9f0d17	-0.31064674
10	0xbf8f6442	-1.1202471
11	0x3e8e2188	0.27759957
12	0x3f9459f3	1.158995
13	0x3eb6cbd4	0.35702384
14	0x3f634835	0.88782054
15	0x3e9eec8d	0.3103985
16	0x3f270402	0.6524049
17	0x3f5873a8	0.8455148
18	0x3e9d41c1	0.3071423
19	0x3ef4a047	0.47778532
20	0x3eb71540	0.357584
21	0xbe7f4ab3	-0.24930839
22	0xbf8d3403	-1.1031498
23	0x3ebacee8	0.36485982
24	0xbfa4ba5f	-1.2869376
25	0x3fa76640	1.3078079
26	0x3f7af86d	0.9803532
27	0xbe7534f6	-0.23945984
28	0x3e1338ce	0.14377138
29	0x3f626746	0.8843883
30	0x3e0d81a4	0.13818985
31	0xbcfdb1ee	-0.030968633
32	0xbf6b8a3f	-0.9200782
33	0x3e0ad7ff	0.13558958
34	0xbf81d1c4	-1.014214
35	0xbf44149e	-0.7659396
36	0x3f856eb3	1.0424408
37	0x3f000f26	0.50023115
38	0x3f499527	0.78743213
39	0xbf6753b8	-0.9036212
40	0xbf6caddc	-0.9245279
41	0xbef9e249	-0.48805454
42	0x3f83098b	1.0237287
43	0x3f245b8c	0.6420219
44	0xbd7b9cf4	-0.06142898
45	0x3f2f194c	0.68397975
46	0x3f4d01f2	0.80081093
47	0x3e32b63b	0.17452328
48	0x3e079540	0.13240528
49	0x3eb46a89	0.3523753
50	0x3e89c921	0.26911262
51	0x3eb78b17	0.35848305
52	0x3ed4da67	0.41572878
53	0x3f88c0f5	1.0683886
54	0x3e9a6b6d	0.30160084
55	0xbf78ee51	-0.9723864
56	0x3ed2576f	0.41082332
57	0x3f934187	1.1504372
58	0x3fa14d03	1.2601627
59	0xbf8498e9	-1.0359164
60	0xbe8d22af	-0.27565524
61	0x3e2b2e37	0.16716848
62	0x3fa5a6d4	1.2941537
63	0xbf68bb38	-0.90910673
64	0x3f036466	0.5132507
65	0x3e73123e	0.23737428
66	0x3e3099e4	0.17246205
67	0xbf16e39c	-0.58941054
68	0x3e65237c	0.22376817
69	0xbf98aeda	-1.192836
70	0x3e786c3a	0.24260035
71	0xbf16870d	-0.5879982
72	0x3ebc9a6a	0.3683656
73	0xbf5b8a4d	-0.85757905
74	0x3eefb4ee	0.46817726
75	0x3ec670d6	0.38757962
76	0xbf678e62	-0.90451634
77	0x3f1c18a4	0.609751
78	0xbf0e2a9c	-0.55533767
79	0xbfc02422	-1.5011027
80	0xbf13d655	-0.5774892
81	0xbf61e2f3	-0.8823692
82	0x3eaec217	0.34132454
83	0x3eda353d	0.42618743
84	0xbfc63d5e	-1.5487478
85	0x3f53e1aa	0.8276621
86	0x3ec9f97c	0.39448154
87	0xbfe6c96c	-1.8030219
88	0x3e71e6e2	0.23623231
89	0xbf7efaed	-0.9960163
90	0xbefa365d	-0.488696
91	0xbf86dd31	-1.0536252
92	0x3f1d856e	0.6153172
93	0xbf3ea303	-0.74467486
94	0x3d902032	0.07037391
95	0xbfb9c5e4	-1.4513516
96	0x3f2d603a	0.67724955
97	0xbfaede8a	-1.3661664
98	0x3ef1dc30	0.47238302
99	0x3e9ae1b3	0.3025032
100	0xbedb6a36	-0.4285447
101	0x3f132dcf	0.57491773
102	0xbf7d0ee2	-0.98850834
103	0x3f280622	0.6563436
104	0x3ee35a09	0.4440463
105	0x3f556d41	0.83369833
106	0xbf923665	-1.142285
107	0xbf80e799	-1.0070678
108	0xbfc186e2	-1.5119288
109	0xbeeb670a	-0.4597705
110	0xbf708cd0	-0.9396486
111	0xbf955c91	-1.1668874
112	0xbfce4756	-1.611552
113	0x3ea2b5cf	0.31779334
114	0x3dd580e6	0.10424976
115	0xbfa5525e	-1.2915761
116	0xbfa754bc	-1.3072734
117	0xbecd9464	-0.40152276
118	0xbf922284	-1.1416783
119	0x3d8130b9	0.06308121
120	0x3ed63d62	0.41843706
121	0xbeccf7e1	-0.40032867
122	0xbf5ce050	-0.86279774
123	0x3cb9c040	0.02267468
124	0xbf07bd96	-0.5302366
125	0xbfa1bad4	-1.263514
126	0xbf452153	-0.77003974
127	0x3f7e6ed4	0.9938786
128	0x3ed0c55c	0.40775573
129	0xbfb7e2cf	-1.4366091
130	0x3dbce0c1	0.09222556
131	0xbe2e01b4	-0.16992837
132	0x3e0559c3	0.13022523
133	0x3f303645	0.6883281
134	0x3ec0781d	0.3759164
135	0xbf2a15f1	-0.6643973
136	0x3e9e37e7	0.30902025
137	0x3f686774	0.90782857
138	0xbedb10e9	-0.4278634
139	0xbfbd95b4	-1.4811311
140	0xbf6510ed	-0.8947895
141	0xbfa0fb05	-1.2576605
142	0xbf1998f5	-0.5999902
143	0x3ebd20d0	0.36939096
144	0xbf03a10d	-0.5141762
145	0xbf47ec0c	-0.78094554
146	0xbfa752b8	-1.3072119
147	0xbfa460d9	-1.2842056
148	0x3e9c524b	0.30531535
149	0xbf85c312	-1.0450156
150	0x3e960e02	0.29307562
151	0x3ec49ff4	0.38403285
152	0x3e7258d6	0.236667
153	0xbf3c6238	-0.7358737
154	0xbecba775	-0.39776197
155	0x3f6b88d3	0.9200565
156	0xbfb4ac4b	-1.411508
157	0xbf10995e	-0.5648402
158	0xbfa12b36	-1.2591312
159	0xbd7fc1e8	-0.062440783
160	0xbf17f6fa	-0.5936123
161	0x3ec8a5f8	0.39189124
162	0x3ee62ad8	0.44954562
163	0x3ee58e04	0.44834912
164	0xbf3142ea	-0.6924273
165	0xbfabb472	-1.3414443
166	0xbf0ba3ca	-0.545468
167	0xbeb6d428	-0.35708737
168	0x3ebd843d	0.37014952
169	0xbf13052c	-0.57429767
170	0xbf606347	-0.87651485
171	0xbefeb002	-0.49743658
172	0xbd9e4ff6	-0.07730095
173	0xbf9d58fd	-1.2292782
174	0xbf085e4b	-0.5326888
175	0x3f13866e	0.57627
176	0x3e3e4b8c	0.18583506
177	0xbfaf8f59	-1.3715621
178	0xbfb1e957	-1.3899335
179	0x3eb48069	0.3525422
180	0x3ebdb148	0.37049317
181	0xbec8b7d3	-0.39202747
182	0xbe0c4208	-0.13697064
183	0x3e3aa18d	0.18225689
184	0xbfb0cb25	-1.3811995
185	0xbf90a2f6	-1.1299732
186	0xbf9cff47	-1.2265404
187	0x3ec25808	0.37957788
188	0x3f3d1e6e	0.73874557
189	0x3e103e8f	0.14086364
190	0xbf9766b8	-1.1828222
191	0xbf44654f	-0.76717085
