app/src/main/assets/situp-model.tflite (tflite, 64468 bytes, 6 tensors)

dense_5/bias f4 [2]
-0.26216608 0.26216602
00000000: a23a 86be a03a 863e

dense_4/bias f4 [64]
-0.009572087 -0.013873242 -0.01795077 0.14594027 0.09654077 0.0977585 0.02565175 0.087354414
0.15264134 0.13674478 0.09773582 0.1672882 0.032954972 -0.0070734057 -0.016932644 0.15112983
0.17412043 -0.03166562 0.014182565 0.14641643 -0.015544985 0.1307018 0.088560194 0.01600637
0.007289289 -0.001720313 0.12166248 0.020039774 0.121240504 -0.022918133 0.0011024419 0.010550929
0.025034778 0.0033696273 0.14829786 -0.034114473 0.16463965 -0.010021608 0.14517953 0.0013835388
-0.022448838 -0.025088303 -0.009886308 -0.050049357 -0.017319163 0.090301976 -0.06892693 0.17315592
-0.0032957757 0.12126973 0.18578197 0.0068129464 0.16007592 0.10306516 -0.006223097 0.15953684
0.09212632 0.13977866 -0.05820945 -0.03306956 0.13476121 0.1488392 0.011299756 0.10066177
00000000: 3ed4 1cbc 984c 63bc 7e0d 93bc 5e71 153e
00000010: 2bb7 c53d 9c35 c83d 9e23 d23c dfe6 b23d
00000020: 034e 1c3e d306 0c3e b829 c83d 994d 2b3e
00000030: cbfb 063d 07c8 e7bb 54b6 8abc c7c1 1a3e
00000040: a04c 323e cfb3 01bd fd5d 683c 30ee 153e
00000050: 65b0 7ebc b1d6 053e 0c5f b53d ca1f 833c
00000060: fdda ee3b 207c e1ba 2e2a f93d 742a a43c
00000070: f14c f83d cfbe bbbc d07f 903a cedd 2c3c
00000080: bc15 cd3c f7d4 5c3b 65db 173e 9ebb 0bbd
00000090: 4c97 283e ac31 24bc f1a9 143e dc57 b53a
000000a0: a0e6 b7bc fc85 cdbc 2efa 21bc 8e00 4dbd
000000b0: ebe0 8dbc 3ef0 b83d 9029 8dbd c94f 313e
000000c0: f1fd 57bb 445c f83d a13d 3e3e 233f df3b
000000d0: f1ea 233e d413 d33d 1feb cbbb a05d 233e
000000e0: b9ac bc3d 2322 0f3e 086d 6ebd f273 07bd
000000f0: d8fe 093e 4e69 183e 9d22 393c c227 ce3d

dense_3/bias f4 [128]
0.0077972882 0.002276908 -0.07338245 0.008439325 -0.039831698 -0.028333586 0.007403603 -0.03339021
-0.010740992 0.012730498 -0.0039929645 -0.011219526 0.011955863 0.015916165 -0.019298565 -0.036916442
0.014692494 -0.07487512 -0.015703304 0.018529912 -0.042210028 -0.06858617 -0.0036948752 0.01091275
-0.08967398 -0.065387964 -0.055486415 -0.031286288 -0.07132237 -0.07697545 -0.032244984 -0.030927176
-0.059566185 -0.06408249 -0.050886106 -0.05926028 -0.0040064077 -0.04827879 -0.050850537 -0.0442187
-0.005760863 -0.06433206 -0.02639543 -0.08372331 -0.043963168 0.0052264747 -0.06305305 -0.039017644
-0.070427805 -0.07909086 -0.062585644 -0.043998815 0.025761317 -0.017952327 0.0018352921 -0.0496563
-0.041035417 -0.004387842 -0.062857136 0.010837444 -0.06117918 -0.02757729 0.021301357 -0.018575775
-0.062975824 -0.056362566 -0.013445978 -0.047419533 -0.10254915 -0.07324758 -0.026228687 -0.09104751
-0.024765607 0.009403282 -0.08089838 -0.01655502 -0.038391765 -0.041086324 -0.069762655 -0.029063156
-0.06467407 -0.046331875 -0.010752001 0.018765943 -0.071932346 0.003698788 -0.063301474 -0.04970447
0.0334617 -0.047457375 -0.07665056 -0.041630022 -0.0449277 -0.012012431 -0.053697374 -0.019940251
-0.022912169 0.0031782554 -0.088539116 0.0029491934 -0.0020409923 -0.039365996 -0.0038871935 -0.028073393
0.012424883 -0.0866294 -0.015297207 -0.05940228 -0.09536878 -0.035719015 -0.0845986 0.012074215
-0.0029079025 -0.0077592945 -0.051763263 -0.079776265 -0.055501796 -0.011357686 -0.008786097 0.02552428
-0.028646868 -0.0075926674 -0.048979186 0.025601981 -0.007834587 -0.009040354 -0.055587746 -0.021783357
00000000: 6580 ff3b 2d38 153b 8a49 96bd 1845 0a3c
00000010: 9026 23bd d61b e8bc ec99 f23b 2cc4 08bd
00000020: fcfa 2fbc 9493 503c 6ad7 82bb 1ad2 37bc
00000030: 86e2 433c 9e62 823c 0618 9ebc b235 17bd
00000040: c9b8 703c 2058 99bd 37a4 80bc 0bcc 973c
00000050: 6ce4 2cbd e876 8cbd b825 72bb 64cb 323c
00000060: fea6 b7bd 20ea 85bd b945 63bd 0d26 00bd
00000070: 7611 92bd 4ea5 9dbd 5113 04bd fd5a fdbc
00000080: acfb 73bd ae3d 83bd f36d 50bd e8ba 72bd
00000090: 2f48 83bb fbbf 45bd a748 50bd ab1e 35bd
000000a0: 9fc5 bcbb 87c0 83bd 3b3b d8bc 2077 abbd
000000b0: b912 34bd d942 ab3b f521 81bd f7d0 1fbd
000000c0: 743c 90bd 64fa a1bd e72c 80bd 1a38 34bd
000000d0: 6609 d33c c210 93bc 2f8e f03a 6864 4bbd
000000e0: c114 28bd e3c7 8fbb 3ebb 80bd 898f 313c
000000f0: 0597 7abd c5e9 e1bc 2f80 ae3c 392c 98bc
00000100: 78f9 80bd 6fdc 66bd 854c 5cbc fc3a 42bd
00000110: 4a05 d2bd d402 96bd 8bdd d6bc 1e77 babd
00000120: 3ee1 cabc 3910 1a3c 0dae a5bd 659e 87bc
00000130: af40 1dbd 224a 28bd b9df 8ebd db15 eebc
00000140: d773 84bd 7ec6 3dbd 2929 30bc 09bb 993c
00000150: 4451 93bd 5d67 723b 34a4 81bd ea96 4bbd
00000160: 230f 093d aa62 42bd f8fa 9cbd 3e84 2abd
00000170: 1c06 38bd cacf 44bc c7f1 5bbd bd59 a3bc
00000180: 4db2 bbbc 474a 503b ff53 b5bd 4147 413b
00000190: 2bc2 05bb 3d3e 21bd 49c0 7ebb 2cfa e5bc
000001a0: bd91 4b3c c16a b1bd 23a1 7abc ce4f 73bd
000001b0: b550 c3bd 1a4e 12bd 0842 adbd eed2 453c
000001c0: 8292 3ebb ae41 febb b705 54bd bd61 a3bd
000001d0: da55 63bd 9615 3abc 90f3 0fbc 4b18 d13c
000001e0: d6ac eabc e9cb f8bb 669e 48bd 3fbb d13c
000001f0: a45c 00bc fe1d 14bc faaf 63bd 0373 b2bc

situpdetector/dense_3/MatMul f4 [128, 34]
0.39639118 0.082683034 0.0025507263 0.26660445 0.26731557 0.11612254 -0.15008627 0.11864704
0.14506687 0.1305982 -0.21700746 -0.036334526 -0.066341124 -0.117622234 0.008810801 -0.18823953
0.03694749 -0.1916626 0.07208956 0.09638038 0.3913075 0.23031819 -0.030250212 -0.12519418
0.3691799 -0.013094528 0.57505196 -0.23117024 0.76708674 0.19500971 0.36328608 -0.0584121
0.19676128 0.09696013 0.34336483 -0.16521896 0.32652748 0.0052825087 0.29996705 -0.07337161
0.07507062 0.015001096 -0.13295116 -0.31975868 0.30030265 -0.066886276 0.44462654 0.06176374
0.01884765 0.17786573 0.09488537 0.049122784 0.2375478 0.07454128 0.02519613 -0.10394897
-0.15663254 -0.266763 0.24469234 0.09511185 -0.06927831 -0.4661616 0.23784286 -0.16812149
0.10311179 -0.14790714 -0.2523669 -0.20476669 -0.07371154 0.020280972 0.1877693 -0.076523855
0.0049434565 0.13986956 -0.069411285 -0.14836903 -0.008005063 0.12935229 -0.13975358 0.058207337
0.0877585 -0.078745134 0.038578566 0.14719263 0.31655607 -0.04030922 -0.092043005 -0.16438377
0.21304877 -0.17448997 0.12879246 0.5108781 -0.15179712 -0.17401193 -0.20755854 -0.31337857
-0.4142182 -0.16240469 -0.31593066 0.08570319 -0.21616946 0.42533967 0.115144946 -0.1494998
-0.032733604 0.08224986 0.1559499 -0.07486132 0.21096168 -0.053891852 -0.06186893 -0.22761562
-0.31399238 -0.30355522 0.07717689 0.12176936 -0.17468455 -0.1814185 0.013697354 0.11697338
-0.10292091 0.16729932 0.28369886 -0.13735238 -0.22857916 -0.31016025 0.032780375 0.17566074
-0.14183648 -0.2080006 0.25136873 -0.24721573 -0.27748644 0.23379298 -0.17441735 0.0074133677
0.15380655 -0.23641308 0.1708267 -0.15228638 0.27082843 -0.03919577 0.4470576 0.06098579
0.04160976 -0.0068143387 0.109466106 -0.030171385 0.29766765 -0.079765975 -0.22832103 -0.07727921
0.0033227962 -0.1343115 -0.3605805 0.2055966 0.028005593 -0.047901127 -0.0066644023 -0.39069512
-0.26319987 0.39628577 -0.25934833 -0.36237428 0.40918618 -0.14821923 -0.1254095 0.07975514
-0.2520174 -0.010228381 -0.14182681 -0.022726396 0.05461296 -0.20261556 -0.042546652 0.05517488
-0.082470655 -0.09442262 0.1029372 0.126966 -0.03967025 0.00059351634 0.03872464 -0.17831537
-0.103093244 -0.03497959 0.01291287 -0.050381333 0.024159068 -0.09646213 -0.14063433 0.17466882
-0.30965766 -0.025724197 0.18851621 -0.2125271 -0.20898378 0.2216198 -0.03876146 0.13165177
-0.22434302 0.09326187 0.20616215 0.2500443 0.13320899 0.0049353745 0.017163241 0.090173125
0.02482866 -0.02649282 -0.028939197 0.053986013 0.021089373 0.124294505 0.15051316 0.09414953
0.066135995 0.2391377 -0.09950661 0.13433263 -0.18915264 -0.110744365 -0.09880347 0.28869742
-0.1259714 0.1071391 -0.11216273 -0.3593177 0.230995 0.016278861 0.22732091 -0.021082142
-0.17351097 0.16880393 -0.0027456225 -0.054170053 0.15003146 -0.281556 -0.10367052 -0.16911884
-0.046712253 -0.25510636 -0.09990885 -0.1070347 0.0066216826 -0.06621613 -0.040928587 -0.23431157
0.15394534 -0.08099629 0.30296683 -0.14013691 0.06315673 0.31305784 0.15171902 0.13157508
00000000: c9f3 ca3e b955 a93d 162a 273b 6180 883e
00000010: 96dd 883e a7d1 ed3d 37b0 19be 38fd f23d
00000020: 698c 143e 89bb 053e 3437 5ebe 83d3 14bd
00000030: dbdd 87bd ede3 f0bd 2e5b 103c ddc1 40be
00000040: 4056 173d 3343 44be b1a3 933d 1463 c53d
00000050: 7559 c83e 88d8 6b3e 4bcf f7bc e732 00be
00000060: 2605 bd3e 6e8a 56bc 9b36 133f e4b7 6cbe
00000070: cc5f 443f a0b0 473e a200 ba3e 8741 6fbd
00000080: ca7b 493e 0893 c63d 84cd af3e 292f 29be
00000090: 9c2e a73e e518 ad3b 4895 993e db43 96bd
000000a0: a0be 993d 28c7 753c 5924 08be 69b7 a3be
000000b0: 45c1 993e acfb 88bd 17a6 e33e fafb 7c3d
000000c0: 6366 9a3c 6f22 363e 4353 c23d f934 493d
000000d0: bb3f 733e 19a9 983d 1d68 ce3c 33e3 d4bd
000000e0: 4864 20be 2995 88be a190 7a3e 00ca c23d
000000f0: c9e1 8dbd bcac eebe 148d 733e 0a28 2cbe
00000100: 462c d33d f874 17be 3c36 81be 5cae 51be
00000110: 13f6 96bd 4824 a63c 9846 403e 8ab8 9cbd
00000120: b8fc a13b f739 0f3e 8127 8ebd 0dee 17be
00000130: ab27 03bc ed74 043e 901b 0fbe d16a 6e3d
00000140: baba b33d 2145 a1bd 8f04 1e3d aab9 163e
00000150: a313 a23e 481b 25bd 0b81 bcbd 3854 28be
00000160: 7529 5a3e 80ad 32be 2ce2 033e e8c8 023f
00000170: b470 1bbe 2f30 32be 3a8a 54be 2873 a0be
00000180: 6814 d4be 6a4d 26be aac1 a1be 2785 af3d
00000190: 875b 5dbe 1fc6 d93e 1dd1 eb3d 7a16 19be
000001a0: ac13 06bd 9d72 a83d 55b1 1f3e e450 99bd
000001b0: 5706 583e b4bd 5cbd 466a 7dbd 1214 69be
000001c0: 9cc3 a0be 976b 9bbe eb0e 9e3d 3762 f93d
000001d0: 82e0 32be c5c5 39be de6a 603c bd8f ef3d
000001e0: 33c8 d2bd 8350 2b3e fa40 913e 1aa6 0cbe
000001f0: a810 6abe 53cd 9ebe b744 063d 69e0 333e
00000200: 953d 11be 1cfe 54be 67b3 803e 1f26 7dbe
00000210: b412 8ebe 6d67 6f3e 769a 32be d6eb f23b
00000220: 777f 1d3e 4516 72be 32ed 2e3e f6f0 1bbe
00000230: 06aa 8a3e be8b 20bd bce4 e43e 3ccc 793d
00000240: ff6e 2a3d d14a dfbb c42f e03d fb29 f7bc
00000250: e567 983e 585c a3bd fdcc 69be 9044 9ebd
00000260: 45c3 593b f488 09be 029e b8be ea87 523e
00000270: fc6b e53c f933 44bd 0f61 dabb 3109 c8be
00000280: 22c2 86be f8e5 ca3e 4ec9 84be 1f89 b9be
00000290: da80 d13e c8c6 17be 596b 00be aa56 a33d
000002a0: 6d08 81be f094 27bc 0c3b 11be b52c babc
000002b0: d7b1 5f3d 747a 4fbe 6645 2ebd 0eff 613d
000002c0: 60e6 a8bd a660 c1bd bdd0 d23d 6003 023e
000002d0: 467d 22bd 3596 1b3a ba9d 1e3d 4e98 36be
000002e0: 8d22 d3bd c246 0fbd 8190 533c a85c 4ebd
000002f0: 3de9 c53c f08d c5bd 7202 10be 62dc 323e
00000300: 738b 9ebe 8dbb d2bc 650a 413e b4a0 59be
00000310: d8ff 55be 4df0 623e 56c4 1ebd b9cf 063e
00000320: 2dba 65be 1400 bf3d 2c1c 533e ce05 803e
00000330: f067 083e ecb8 a13b ed99 8c3c b0ac b83d
00000340: 7965 cb3c 7807 d9bc e511 edbc 7020 5d3d
00000350: 9fc3 ac3c 1e8e fe3d 1f20 1a3e 78d1 c03d
00000360: 4f72 873d 83e0 743e 1fca cbbd 7e8e 093e
00000370: 3bb1 41be f1cd e2bd 7959 cabd 26d0 933e
00000380: a6fe 00be bf6b db3d 93b5 e5bd 7df8 b7be
00000390: f489 6c3e 3f5b 853c d0c6 683e 75b4 acbc
000003a0: dcac 31be f0da 2c3e e7ef 33bb 6be1 5dbd
000003b0: d9a1 193e 1c28 90be 3651 d4bd 7d2d 2dbe
000003c0: 5955 3fbd 4d9d 82be 039d ccbd 0235 dbbd
000003d0: b3fa d83b 539c 87bd bca4 27bd 5fef 6fbe
000003e0: d9a3 1d3e 62e1 a5bd 781e 9b3e 0d80 0fbe
000003f0: 5158 813d 1e49 a03e 3b5c 1b3e 9ebb 063e

situpdetector/dense_4/MatMul f4 [64, 128]
0.37309563 0.21994598 0.048645526 0.07237015 0.24515687 0.07182053 0.11637413 -0.07174711
-0.17574304 0.5032417 0.2381895 -0.014939606 0.4430204 0.36272156 0.34231964 -0.35318497
0.3374506 0.31368408 -0.013364783 0.24751814 0.00013238314 0.0010136805 0.23507461 0.15450227
-0.29299596 0.2634013 0.45324895 -0.16394223 -0.26387015 0.30580902 -0.31702724 -0.020297337
-0.16676405 0.12906401 0.20951386 -0.052870996 0.38652703 0.07856454 0.023423593 0.35084972
0.14798819 0.047964577 0.22379676 -0.05290635 0.10123291 0.22012497 -0.017970547 0.085640006
-0.24998938 -0.2249075 0.2920158 0.14936411 0.34873328 0.16347241 0.5219314 0.18260066
0.14640889 -0.012041205 -0.3158491 0.39507994 0.21958128 0.27505383 0.49825135 0.087372735
0.00081258675 -0.173356 -0.003144122 -0.13688816 -0.09747384 -0.14328717 0.34206697 -0.049473457
-0.15474601 0.4005058 -0.046464723 0.27320683 0.0969496 0.025741957 0.30058184 0.31096193
-0.29819897 0.15693511 0.20910382 0.33682117 -0.0373916 0.41399127 -0.124478534 -0.22119538
0.33617684 -0.08195029 -0.10592789 0.180591 0.062369503 0.25398523 -0.22363128 0.3591222
-0.050001808 0.17317906 -0.12791917 0.31143978 0.27357823 -0.062742785 0.29846993 0.11103255
0.18085188 -0.041662447 0.053588983 0.3006573 -0.13842468 0.021891542 -0.13273506 0.33136812
0.26073486 0.18601972 0.111721195 -0.09361916 -0.10639368 0.16631453 0.51045275 0.19901974
0.2001862 0.46162432 0.088251114 0.17126723 -0.1078184 -0.088470034 -0.117798805 0.21816774
0.16337448 0.31090057 0.20802067 0.09101129 0.128737 -0.061480843 -0.026947558 -0.14495094
-0.1777915 0.3106662 0.21912086 0.26907 0.40398628 0.3125314 0.27486485 -0.17783289
0.44672674 0.15483391 0.064590186 -0.08740022 -0.11653982 0.040751617 0.25133193 0.24728428
-0.23926611 0.20478 0.28103015 0.06297313 -0.035788786 0.2919321 -0.18855768 -0.05904356
0.0068048593 0.08233866 0.24909973 -0.14656234 0.22052808 0.2583642 -0.020442707 0.22676553
-0.099584594 0.04366974 0.26566818 -0.013130786 0.13616109 0.2906892 -0.13864605 0.23610397
0.1277187 -0.20749055 0.35305044 0.21085602 0.41204306 0.33267018 0.31726146 0.14485517
0.022235207 0.18191272 -0.25165948 0.45533073 0.13286929 0.45699725 0.4852256 0.31405836
0.043117657 -0.12653813 -0.05626796 -0.025756808 0.042179737 -0.12580311 0.15918371 0.036612764
-0.17906703 0.3383331 -0.17771801 0.22677654 -0.07852936 0.17074761 0.23242283 0.36920804
-0.22058177 0.18882582 0.26794818 0.5243233 -0.010891058 0.46752983 -0.13843888 0.06616637
0.20169492 0.07830237 0.31209356 -0.008428457 0.2904089 0.48720917 -0.22065267 0.18943809
-0.20537902 0.16465953 -0.20543718 0.2403877 0.50195277 -0.14463694 0.020548329 0.12339299
0.16219667 0.06707426 -0.016689124 0.28324512 -0.14055191 0.012789203 -0.25598702 0.4091981
0.12298069 0.2765784 -0.24291578 0.030973574 -0.18856388 0.15155011 0.4571574 0.12422696
0.40029424 0.55215555 0.36320066 0.3697617 0.01124537 -0.0010244611 -0.03760683 0.25306007
00000000: 6406 bf3e 8539 613e 8840 473d cd36 943d
00000010: 670a 7b3e a416 933d 8f55 ee3d 26f0 92bd
00000020: fcf5 33be 73d4 003f f3e7 733e 40c5 74bc
00000030: 92d3 e23e a4b6 b93e 8544 af3e a9d4 b4be
00000040: 53c6 ac3e 339b a03e f6f7 5abc 6575 7d3e
00000050: 54d0 0a39 79dd 843a 66b7 703e d835 1e3e
00000060: 9103 96be 89dc 863e 3f10 e83e 79e0 27be
00000070: fd19 87be 0093 9c3e 6551 a2be 9a46 a6bc
00000080: 32c4 2abe 5b29 043e cd8a 563e 428f 58bd
00000090: dfe6 c53e 72e6 a03d d6e2 bf3c 93a2 b33e
000000a0: 378a 173e 8176 443d fa2a 653e 54b4 58bd
000000b0: 3353 cf3d 7168 613e f836 93bc 0764 af3d
000000c0: 37fd 7fbe 274e 66be 1883 953e e8f2 183e
000000d0: 2b8d b23e 5065 273e 4c9d 053f abfb 3a3e
000000e0: 36ec 153e 7948 45bc f9b6 a1be eb47 ca3e
000000f0: ead9 603e dbd3 8c3e cd1a ff3e 7af0 b23d
00000100: c603 553a 3c84 31be 9d0d 4ebb 692c 0cbe
00000110: 5da0 c7bd dfb9 12be 6723 af3e aea4 4abd
00000120: bd75 1ebe 190f cd3e cb51 3ebd c4e1 8b3e
00000130: 838d c63d cce0 d23c dde5 993e 6736 9f3e
00000140: 89ad 98be 99b3 203e 501f 563e d373 ac3e
00000150: ef27 19bd aaf6 d33e 9aee febd 0b81 62be
00000160: 5f1f ac3e 8ed5 a7bd b9f0 d8bd d9ec 383e
00000170: 2a77 7f3d 5a0a 823e 99ff 64be ddde b73e
00000180: b2ce 4cbd da55 313e 3efd 02be 0975 9f3e
00000190: 7212 8c3e 4a7f 80bd 0dd1 983e 0965 e33d
000001a0: 3c31 393e 3ea6 2abd 1f80 5b3d c1ef 993e
000001b0: 33bf 0dbe e455 b33c b3eb 07be 15a9 a93e
000001c0: 0a7f 853e f47b 3e3e 15ce e43d 67bb bfbd
000001d0: eee4 d9bd 5b4e 2a3e 08ad 023f d5cb 4b3e
000001e0: 9cfd 4c3e 065a ec3e 00bd b43d ad60 2f3e
000001f0: e5cf dcbd c72f b5bd 8040 f1bd 5d67 5f3e
00000200: a44b 273e 5c2e 9f3e 5f03 553e 2164 ba3d
00000210: a2d3 033e 56d3 7bbd 20c1 dcbc 056e 14be
00000220: fa0e 36be a40f 9f3e 3861 603e 8bc3 893e
00000230: 4ad7 ce3e 1e04 a03e 16bb 8c3e d319 36be
00000240: 5eb9 e43e c88c 1e3e dc47 843d e3fe b2bd
00000250: 6eac eebd 2beb 263d 94ae 803e 1738 7d3e
00000260: 2d02 75be d9b1 513e 2fe3 8f3e 0ef8 803d
00000270: 4397 12bd 2078 953e 4415 41be a9d7 71bd
00000280: 4cfb de3b 2ca1 a83d 0014 7f3e 7014 16be
00000290: 1dd2 613e 5048 843e 7777 a7bc 3935 683e
000002a0: 02f3 cbbd 0bdf 323d a905 883e 8222 57bc
000002b0: d06d 0b3e 37d5 943e 3bf9 0dbe 3dc5 713e
000002c0: b1c8 023e 6778 54be 07c3 b43e a4ea 573e
000002d0: 4ff7 d23e bf53 aa3e 1870 a23e ea54 143e
000002e0: 9c26 b63c 5447 3a3e 83d9 80be 1c21 e93e
000002f0: e30e 083e 8bfb e93e 7d6f f83e 42cc a03e
00000300: 249c 303d 3693 01be 3c79 66bd f1ff d2bc
00000310: a9c4 2c3d 88d2 00be 0e01 233e 44f7 153d
00000320: 595d 37be ff39 ad3e b6fb 35be 1c38 683e
00000330: 00d4 a0bd 76d8 2e3e 4000 6e3e d608 bd3e
00000340: 30e0 61be 8e5b 413e 8130 893e 0d3a 063f
00000350: 6870 32bc 1260 ef3e ecc2 0dbe 3c82 873d
00000360: 1d89 4e3e fe5c a03d baca 9f3e 8317 0abc
00000370: 7ab0 943e 7b73 f93e c6f2 61be 0ffc 413e
00000380: e14e 52be 829c 283e 205e 52be 3128 763e
00000390: fa7f 003f b51b 14be f854 a83c 77b5 fc3d
000003a0: e216 263e 3b5e 893d a1b7 88bc 8105 913e
000003b0: d7ec 0fbe ce89 513c bb10 83be 6a82 d13e
000003c0: 4ddd fb3d af9b 8d3e eabe 78be 4bbc fd3c
000003d0: e416 41be f42f 1b3e 8910 ea3e b46a fe3d
000003e0: 5ef3 cc3e 115a 0d3f 70f5 b93e 6851 bd3e
000003f0: 803e 383c 3647 86ba 9f09 1abd 1791 813e

situpdetector/dense_5/MatMul f4 [2, 64]
0.6160766 0.572945 0.50652385 -0.76296043 -0.58247524 -0.83320755 0.6834114 -0.85752255
-0.90735406 -0.35665125 -0.7873186 -0.55888355 0.8762444 0.54661757 0.32918024 -0.8291774
-0.856885 0.75475466 0.93090594 -0.87147784 0.68197584 -0.6319493 -0.48678723 0.32196307
0.8014329 0.7441784 -0.777957 0.89446175 -0.67098993 0.6767714 0.6789293 0.60822576
0.82317626 0.4591818 -0.8142604 0.40001893 -0.40692875 0.70783913 -0.7034734 0.699386
0.85553855 0.8128844 0.5955093 0.61386704 0.54086703 -0.49661922 -0.16074543 -0.933454
0.62455034 -0.7181139 -0.6950378 0.53454745 -0.89101964 -0.7355447 0.5297743 -0.54759574
-0.6333673 -0.72190064 0.5629155 0.7487834 -0.68168616 -0.7454296 0.84010196 -0.33981097
-0.6914946 -0.82315725 -0.8045113 0.68312705 0.8616275 0.83932734 -0.61487514 0.6798136
0.95148116 0.61359775 0.5854215 0.5920204 -0.44372058 -0.63752896 -0.7159345 0.7809766
0.6809113 -0.6231825 -0.473222 0.64646024 -0.6305398 0.49154705 0.6583978 -0.9152383
-0.56033933 -0.568626 0.6934001 -0.620737 0.94595647 -0.3954682 -0.45988855 -0.56738585
-0.58830565 -0.66473204 0.8080429 -0.6105443 0.761903 -0.3584572 0.72209436 -0.32581145
-0.31983826 -0.74050504 -0.42635062 -0.66959196 -0.77635753 0.83307284 0.20574006 0.7315351
-0.6204495 1.0433155 0.88866246 -0.82010806 0.6134275 0.5482405 -0.7297932 0.9084006
0.63770384 0.56860155 -0.57739246 -0.6581556 0.6672246 0.44791183 -0.75993323 0.67138726
00000000: 32b7 1d3f 86ac 123f 8cab 013f 6051 43bf
00000010: 191d 15bf 174d 55bf 0df4 2e3f 9986 5bbf
00000020: 5b48 68bf fe9a b6be b68d 49bf fe12 0fbf
00000030: 8e51 603f 21ef 0b3f 508a a83e f844 54bf
00000040: d15c 5bbf 9a37 413f da4f 6e3f 2c19 5fbf
00000050: f895 2e3f 6ec7 21bf 2d3c f9be 58d8 a43e
00000060: b52a 4d3f 7a82 3e3f 3128 47bf 72fb 643f
00000070: ffc5 2bbf e440 2d3f 50ce 2d3f afb4 1b3f
00000080: aebb 523f e019 eb3e 5f73 50bf 48cf cc3e
00000090: f758 d0be f234 353f d516 34bf f60a 333f
000000a0: 9304 5b3f 3119 503f 4c73 183f 6426 1d3f
000000b0: 4376 0a3f e044 febe 739a 24be d7f6 6ebf
000000c0: 88e2 1f3f 50d6 37bf ffed 31bf 1ad8 083f
000000d0: dd19 64bf a84c 3cbf 4a9f 073f 3c2f 0cbf
000000e0: 5c24 22bf 7bce 38bf 3b1b 103f 45b0 3f3f
000000f0: fc82 2ebf 79d4 3ebf ec10 573f b4fb adbe
00000100: ca05 31bf 6fba 52bf 74f4 4dbf 6ae1 2e3f
00000110: 9f93 5c3f 28de 563f 7568 1dbf 4408 2e3f
00000120: 4594 733f be14 1d3f 2fde 153f a68e 173f
00000130: 582f e3be 1935 23bf 7c47 37bf 15ee 473f
00000140: 3450 2e3f e388 1fbf 274a f2be 6b7e 253f
00000150: 0e6b 21bf 0eac fb3e c28c 283f 0f4d 6abf
00000160: 6672 0fbf 7991 11bf ab82 313f 9fe8 1ebf
00000170: 342a 723f cf7a cabe 8376 ebbe 3340 11bf
00000180: 339b 16bf e12b 2abf e6db 4e3f a24c 1cbf
00000190: 130c 433f b487 b7be 2ddb 383f c2d0 a6be
000001a0: d7c1 a3be bd91 3dbf a14a dabe 616a 2bbf
000001b0: 5ebf 46bf 4344 553f 86ad 523e e245 3b3f
000001c0: c7d5 1ebf 5d8b 853f 627f 633f 9af2 51bf
000001d0: 9609 1d3f 7d59 0c3f bad3 3abf f18c 683f
000001e0: 8f40 233f df8f 113f fecf 13bf e37c 28bf
000001f0: 3bcf 2a3f b354 e53e fc8a 42bf 09e0 2b3f
